data/local_growth_rates_5_model_L86_gcm_state.npy (npy, 280128 bytes, 1 tensors)

array f8 [7000, 5]
000000 5d bf 5d 56 f8 bf 86 3f b7 c9 6e 2e a2 be 87 bf
       0.011108341346442502 -0.01159407333566241
000010 58 14 80 38 01 00 b9 be e9 a5 d0 88 e9 1f 6e bf
       -1.490117229608893e-06 -0.0036773263186844385
000020 e3 87 3a f7 ec 66 3f bf 60 04 25 de d8 92 86 3f
       -0.0004791573075896267 0.011022276191058278
000030 29 0a 29 04 7f 8e 86 bf 58 14 80 38 01 00 b9 be
       -0.011013977350676179 -1.490117229608893e-06
000040 a9 f6 5f a4 9c c1 6f bf 55 62 36 91 16 b1 40 bf
       -0.003876501027660979 -0.0005093918029386949
000050 68 aa 0d d7 da 64 86 3f 40 98 fc ad 07 5b 85 bf
       0.010934552848728532 -0.01042753219332948
000060 00 12 00 20 01 00 b8 be 36 df 30 56 65 b4 70 bf
       -1.4305124977918903e-06 -0.004078288885516026
000070 4a 29 9e b8 b9 b6 41 bf 49 4f c1 d9 1d 36 86 3f
       -0.0005405814019792479 0.010845406730517164
000080 db 96 0f 8b 60 25 84 bf dd 0d 00 f2 00 00 b6 be
       -0.009836916202356097 -1.3113030448160555e-06
000090 a7 51 08 e7 97 88 71 bf d8 55 f2 22 60 c4 42 bf
       -0.004280656212831613 -0.0005727261940530705
0000a0 a0 8d 03 05 92 06 86 3f 2b 2b ad da 7c ee 82 bf
       0.010754719522487133 -0.009243941710925426
0000b0 0f 0c 80 dc 00 00 b5 be 61 18 40 50 d4 5b 72 bf
       -1.251698323657223e-06 -0.004482106542132853
0000c0 27 37 b6 8b 09 d7 43 bf 90 5f ad 9c 76 d6 85 3f
       -0.0006054684267142494 0.010662962585840124
0000d0 8a 4b 83 b4 7f b7 81 bf 0f 0c 80 dc 00 00 b5 be
       -0.0086507775271565 -1.251698323657223e-06
0000e0 32 0d ab d0 16 2b 73 bf d8 38 38 fe 35 ee 44 bf
       -0.004679764863513557 -0.0006387485158841034
0000f0 07 2c da 17 9c a5 85 3f 37 26 b7 5e 7b 81 80 bf
       0.010569781759178566 -0.00805946715162796
000100 6b 0a 00 c8 00 00 b4 be e9 d1 10 c9 8d f5 73 bf
       -1.192093606051113e-06 -0.004872850274342679
000110 a3 f0 cd 3f e5 07 46 bf b3 a5 34 3e 12 74 85 3f
       -0.000672327936271273 0.010475294612279784
000120 26 21 e1 b5 e2 9a 7e bf 98 07 00 a2 00 00 b2 be
       -0.007471929157027801 -1.0728841814970589e-06
000130 c8 2f 5b c0 15 b9 74 bf 93 68 4d ed 96 21 47 bf
       -0.0050593232787825085 -0.000705908484273781
000140 84 a3 0a 03 d9 41 85 3f b1 ca 21 93 05 39 7c bf
       0.01037950077564332 -0.0068903177035390265
000150 98 07 00 a2 00 00 b2 be 7b 39 05 c9 3b 74 75 bf
       -1.0728841814970589e-06 -0.0052378020630626755
000160 18 c7 0a be ca 39 48 bf b6 e1 62 83 e0 0e 85 3f
       -0.0007393112137689976 0.010282281884756422
000170 12 07 1d db 5f df 79 bf 66 06 80 90 00 00 b1 be
       -0.006316542088656412 -1.013279474549114e-06
000180 eb cf 55 7c ea 23 76 bf 0f 1f 9c 29 00 4e 49 bf
       -0.005405345878319405 -0.0007722378533978352
000190 b4 0c fa b7 87 db 84 3f 91 5e 96 7a a0 8f 77 bf
       0.010184345533394847 -0.005752207632575016
0001a0 ca 08 00 e1 00 00 ae be 61 33 2f 60 20 c8 76 bf
       -8.940700713113865e-07 -0.005561949222237712
0001b0 fd c9 c0 fb b6 5d 4a bf 93 83 36 90 6f a7 84 3f
       -0.0008046287034687013 0.010084983433275052
0001c0 ff 3a 88 df c5 4b 75 bf ca 08 00 e1 00 00 ae be
       -0.005199215833740166 -8.940700713113865e-07
0001d0 0e f0 44 98 78 5e 77 bf 2e 5a 85 3c ee 64 4b bf
       -0.005705329011387773 -0.0008360064758033464
0001e0 3e 99 23 ac b7 72 84 3f b4 47 c4 fa 6c 15 73 bf
       0.009984431210295793 -0.004659105016132804
0001f0 80 04 00 90 00 00 a8 be b1 6f f1 05 e0 e5 77 bf
       -7.152559931001943e-07 -0.005834460344967527
000200 be e7 aa 7e a5 62 4c bf 35 3a e4 ae 7f 3d 84 3f
       -0.000866251762395402 0.00988292458035032
000210 01 6c 37 91 d1 ed 70 bf 25 07 00 c4 00 00 ac be
       -0.004133051511838738 -8.344653750216029e-07
000220 39 d5 45 39 b4 5d 78 bf ab b6 a2 31 5c 55 4d bf
       -0.005948738097108213 -0.0008951854863618788
000230 12 7d eb 16 f7 07 84 3f ae 76 b9 1e be ac 6d bf
       0.009780817400893347 -0.003622409179839212
000240 25 07 00 c4 00 00 ac be dd ee 57 35 41 c4 78 bf
       -8.344653750216029e-07 -0.006046538086134948
000250 84 71 95 7f 91 3a 4e bf 6a da a1 ca be d1 83 3f
       -0.0009225092355041186 0.009677401121945556
000260 52 c1 fb d3 40 a1 69 bf ca 08 00 e1 00 00 ae be
       -0.0031286493466426224 -8.940700713113865e-07
000270 3c 50 b6 7f c4 18 79 bf 5f 2b 8a 84 c4 0f 4f bf
       -0.0061271358239488 -0.0009479245719189281
000280 da c5 e9 83 55 9b 83 3f 5b d2 39 e8 1d b9 65 bf
       0.009573619926615363 -0.002651747143142464
000290 80 04 00 90 00 00 a8 be ed d7 bd 94 fc 5a 79 bf
       -7.152559931001943e-07 -0.00619028725110658
0002a0 e4 44 7f f0 f4 d4 4f bf 59 19 80 65 ab 64 83 3f
       -0.0009714313500756269 0.009469355616613372
0002b0 1c 0d 55 95 0a f8 61 bf b9 05 00 a9 00 00 aa be
       -0.0021934706407208526 -7.748606822845391e-07
0002c0 2f 55 49 c4 67 8a 79 bf 45 be 13 db 90 43 50 bf
       -0.006235509241908673 -0.0009926714522484764
0002d0 40 11 f3 02 81 2d 83 3f a6 81 f8 56 f2 bb 5c bf
       0.009364135649214789 -0.0017537943457527154
0002e0 b9 05 00 a9 00 00 aa be 86 cc 83 e6 b4 a6 79 bf
       -7.748606822845391e-07 -0.006262499468209564
0002f0 ad 15 4e 11 65 92 50 bf c4 32 34 fe 64 f6 82 3f
       -0.001011465739084154 0.009259022720038763
000300 dd c7 4d 9c 39 d7 55 bf 77 03 00 79 00 00 a6 be
       -0.0013330519297736134 -6.556513074685684e-07
000310 8b 73 ac 48 b3 af 79 bf f8 12 54 d3 76 d6 50 bf
       -0.006271076514875139 -0.001027694740799832
000320 23 a7 76 58 57 bf 82 3f a8 1a 95 bc a4 8b 4e bf
       0.00915401686400547 -0.0009321741464781335
000330 77 03 00 79 00 00 a6 be 66 a3 4b 7e d3 a5 79 bf
       -6.556513074685684e-07 -0.006261659761300864
000340 b8 81 be ed 85 0f 51 bf 1c 3f 69 cb 08 88 82 3f
       -0.0010412986657471878 0.009048527438750002
000350 ac ac ed 74 c5 0a 42 bf 77 03 00 79 00 00 a6 be
       -0.0005506004471106571 -6.556513074685684e-07
000360 c5 52 b2 90 05 89 79 bf 1d 0d 61 ca d1 3b 51 bf
       -0.0062341897384114485 -0.0010518597350859867
000370 e2 64 26 e5 17 51 82 3f 2c 3b d8 7b 98 b2 28 bf
       0.008943735771753617 -0.00018842803358195528
000380 e6 01 00 51 00 00 a2 be 25 f8 65 e4 ea 59 79 bf
       -5.364419468634711e-07 -0.006189267680722953
000390 9a 5f 77 71 da 5b 51 bf 1e c3 35 89 94 1a 82 3f
       -0.0010594971880575122 0.008839760243718294
0003a0 89 83 6d 20 9a 2f 24 3f e6 01 00 51 00 00 a2 be
       0.00015400654248323386 -5.364419468634711e-07
0003b0 44 65 c2 16 25 19 79 bf 86 9b 97 d0 9f 6f 51 bf
       -0.006127495649843443 -0.0010642109576737015
0003c0 71 e2 01 e4 6e e4 81 3f fb 5c 0c 2a 16 4c 3f 3f
       0.008736482938034503 0.0004775575744572905
0003d0 77 03 00 79 00 00 a6 be 57 45 c3 61 f5 c6 78 bf
       -6.556513074685684e-07 -0.006049116633407201
0003e0 af e7 07 85 e1 75 51 bf 4c 10 60 93 d6 ae 81 3f
       -0.0010657026615476896 0.008634258625541368
0003f0 a5 1a af e6 6e a1 49 3f 55 01 00 40 00 00 a0 be
       0.0007821837910960318 -4.768372718899988e-07
000400 81 55 28 59 5e 64 78 bf f5 bb 42 9c df 6e 51 bf
       -0.005955093906341858 -0.0010640319533583552
000410 3a 7b 02 8c 4a 7a 81 3f 1d 15 be b4 1a 82 51 3f
       0.008534033200985659 0.0010686169434575628
000420 80 04 00 90 00 00 a8 be 0b 4f 5c 4c 22 f2 77 bf
       -7.152559931001943e-07 -0.005846151330633163
000430 70 8b 00 2c da 5a 51 bf 8f fb d1 49 9b 46 81 3f
       -0.0010592585167692146 0.008435452642741285
000440 bc a7 58 8c bf e8 55 3f b9 05 00 a9 00 00 aa be
       0.0013372297847902134 -7.748606822845391e-07
000450 01 ac 1b eb 33 71 77 bf e0 2b 00 1e 51 39 51 bf
       -0.005723192983832171 -0.0010512630615291327
000460 fe 01 75 ef 37 14 81 3f c4 5c 9a 2a 35 05 5a 3f
       0.008339344973706805 0.0015881556704806935
000470 80 04 00 90 00 00 a8 be d2 32 f3 f0 85 e2 76 bf
       -7.152559931001943e-07 -0.005587123115401398
000480 d3 90 99 a9 c4 0a 51 bf fb 23 2e 52 40 e3 80 3f
       -0.0010401649982663588 0.008245947368566311
000490 2c 22 7c 45 07 dd 5d 3f 9b 02 00 64 00 00 a4 be
       0.0018227168092740482 -5.960466253896608e-07
0004a0 8b b1 39 fc ab 47 76 bf 74 3d 03 fc 74 cf 50 bf
       -0.005439445321468016 -0.0010260240961093821
0004b0 1c fd c3 e5 03 b4 80 3f 1b 46 77 f9 60 b8 60 3f
       0.008155851792706552 0.002041043666147114
0004c0 80 04 00 90 00 00 a8 be ff a2 06 5d 58 a1 75 bf
       -7.152559931001943e-07 -0.00528082386919304
0004d0 c6 c4 b8 38 62 87 50 bf 95 9b 3b 45 c2 86 80 3f
       -0.0010088404841435568 0.008069532144373595
0004e0 c9 c7 c7 dd b6 62 62 3f 77 03 00 79 00 00 a6 be
       0.0022443362815858 -6.556513074685684e-07
0004f0 02 d7 46 b4 7d f0 74 bf 79 3e ac cb 8c 33 50 bf
       -0.0051121626205963295 -0.0009888529736520586
000500 8f cb b0 ce da 5b 80 3f 57 6d 57 3a 8a ed 63 3f
       0.007987698967644423 0.002432603813515104
000510 80 04 00 90 00 00 a8 be 76 51 9d 96 df 36 74 bf
       -7.152559931001943e-07 -0.0049351438445522835
000520 ea 67 82 05 ea a8 4f bf a6 c5 75 67 6d 33 80 3f
       -0.000966181057282298 0.007910589904642173
000530 f9 31 13 47 de 5a 65 3f 80 04 00 90 00 00 a8 be
       0.0026068059310999617 -7.152559931001943e-07
000540 8f 48 61 46 60 75 73 bf 1c 50 28 3f b6 d4 4e bf
       -0.0047506104220521725 -0.0009408845783718286
000550 b3 5c 3d 55 e9 0d 80 3f b6 a0 bf 5d f5 ac 66 3f
       0.007839033998307298 0.002768019896382946
000560 9b 02 00 64 00 00 a4 be b3 8c 95 7d 62 ad 72 bf
       -5.960466253896608e-07 -0.004559883812677845
000570 28 f7 67 65 7f ed 4d bf 5b d1 fa c5 7b d7 7f 3f
       -0.000913321690688672 0.0077738604447186955
000580 2a ec 35 ad 12 e4 67 3f b9 05 00 a9 00 00 aa be
       0.002916370847456236 -7.748606822845391e-07
000590 21 72 90 72 08 e0 71 bf 89 61 38 19 46 f4 4c bf
       -0.004364045141326518 -0.0008836118963158483
0005a0 15 32 3e 38 f6 99 7f 3f f7 3b 4a 54 b7 02 69 3f
       0.007715188785266243 0.003053052964169019
0005b0 77 03 00 79 00 00 a6 be b3 ab 27 6c b4 0e 71 bf
       -6.556513074685684e-07 -0.0041644141915452735
0005c0 0a a9 a7 fb 0a ea 4b bf 60 27 fc 9f 9f 64 7f 3f
       -0.0008518746975003943 0.007664321455885886
0005d0 f9 d1 23 7c 65 09 6a 3f b9 05 00 a9 00 00 aa be
       0.003178308689820716 -7.748606822845391e-07
0005e0 b3 4d 1b 4c a8 3a 70 bf 40 73 9f 32 4f d2 4a bf
       -0.0039621900666192865 -0.0008185278613797933
0005f0 ad 2d ab d2 b7 37 7f 3f 79 a2 a3 c3 1d fa 6a 3f
       0.007621496256159527 0.0032930928547226204
000600 80 04 00 90 00 00 a8 be 70 e0 b0 a4 8b ca 6e bf
       -7.152559931001943e-07 -0.0037586905869169615
000610 bf 3b 6d 7d 13 af 49 bf fc b4 07 ea 5c 14 7f 3f
       -0.0007838101545106709 0.0075877789936218375
000620 b4 71 a4 cc 60 d6 6b 3f b9 05 00 a9 00 00 aa be
       0.003398121892258932 -7.748606822845391e-07
000630 cb 3b 3e 02 dc 1e 6d bf e5 b9 1e 74 d8 81 48 bf
       -0.003554753975499624 -0.0007479006674112025
000640 0c 96 35 6c ee fa 7e 3f 64 09 f5 91 ef 9e 6c 3f
       0.007563525522845459 0.0034937552551649754
000650 77 03 00 79 00 00 a6 be 5e 7e 3a 18 e4 74 6b bf
       -6.556513074685684e-07 -0.0033516364072310586
000660 59 7c c4 17 9f 4e 47 bf e5 8d 2e a5 e9 ec 7e 3f
       -0.0007112767048375143 0.0075501562850237335
000670 22 ce ff eb 89 55 6d 3f 9b 02 00 64 00 00 a4 be
       0.003580827120453171 -5.960466253896608e-07
000680 53 b8 80 c4 86 d0 69 bf 42 60 a4 a9 e7 15 46 bf
       -0.0031511909656023822 -0.0006739979901651055
000690 71 0e 24 2e 0f ea 7e 3f b4 3c 2f 2f 2f fc 6d 3f
       0.00754743509083121 0.003660289914001769
0006a0 b9 05 00 a9 00 00 aa be 7b b7 04 d5 a3 32 68 bf
       -7.748606822845391e-07 -0.00295383451898251
0006b0 53 c6 e1 f8 b2 db 44 bf b0 aa b8 ad 1b f4 7e 3f
       -0.0006365417373343597 0.007557018394019607
0006c0 93 40 cf 0b 21 92 6e 3f 80 04 00 90 00 00 a8 be
       0.0037317891533135777 -7.152559931001943e-07
0006d0 85 73 56 58 1c 9e 66 bf 46 6c f2 99 81 a3 43 bf
       -0.0027609399428016345 -0.0005993254489057374
0006e0 a4 34 9d 0b 0f 0b 7f 3f a9 ad 78 07 dd 1a 6f 3f
       0.0075789058408421185 0.00379698915255285
0006f0 77 03 00 79 00 00 a6 be 53 43 3f e7 f0 15 65 bf
       -6.556513074685684e-07 -0.002573938860202332
000700 7a 15 92 90 d3 6d 42 bf d0 da ac 26 66 30 7f 3f
       -0.0005624087363151197 0.007614516284596376
000710 e8 e6 3a cf 62 97 6f 3f 80 04 00 90 00 00 a8 be
       0.0038563661454106175 -7.152559931001943e-07
000720 bf c9 88 bb c0 9b 63 bf 88 44 79 54 a9 3e 41 bf
       -0.0023936046893819614 -0.0005262686544914722
000730 51 93 3e 17 e1 63 7f 3f 9c 98 ec f8 58 04 70 3f
       0.007663611660892426 0.003910396145135799
000740 b9 05 00 a9 00 00 aa be 88 ce 6b 40 eb 31 62 bf
       -7.748606822845391e-07 -0.002221068836087362
000750 a2 e5 c4 f7 02 18 40 bf 81 8f 4c de bc a6 7f 3f
       -0.0004911436549612134 0.007727372900976693
000760 10 1d fa b0 24 38 70 3f 25 07 00 c4 00 00 ac be
       0.003959792447523883 -8.344653750216029e-07
000770 41 0d 16 bf 2f db 60 bf 0e 01 28 6f c1 fb 3d bf
       -0.0020576412723031516 -0.0004575106860613833
000780 43 52 aa 3b 38 f9 7f 3f 0b d2 80 77 53 68 70 3f
       0.007806033764286516 0.004005743067001531
000790 b9 05 00 a9 00 00 aa be 55 f6 48 f6 d9 33 5f bf
       -7.748606822845391e-07 -0.0019044521842625135
0007a0 6d 9c 19 ba 84 e2 3b bf 2a 44 f0 9d e8 2d 80 3f
       -0.0004254888573087038 0.007900063819791543
0007b0 9c de f0 2a 25 95 70 3f b9 05 00 a9 00 00 aa be
       0.004048485933757864 -7.748606822845391e-07
0007c0 ae e4 c8 37 42 df 5c bf 51 bc 77 0f 50 ed 39 bf
       -0.0017622133883732727 -0.00039561466789356676
0007d0 70 03 77 f8 72 67 80 3f 3e ff 26 dc 98 bf 70 3f
       0.00800981350664795 0.004088971242197035
0007e0 b9 05 00 a9 00 00 aa be d0 23 5e 56 95 bd 5a bf
       -7.748606822845391e-07 -0.0016321142552177988
0007f0 fc 1e 07 e4 22 1f 38 bf ae b5 bf 9c 2a a9 80 3f
       -0.00036806680512001234 0.008135159405322803
